…
______\n"," Layer (type)                Output Shape              Param #   \n","=================================================================\n"," time_distributed (TimeDist  (None, 30, 120, 120, 16   448       \n"," ributed)                    )                                   \n","                                                                 \n"," time_distributed_1 (TimeDi  (None, 30, 120, 120, 16   64        \n"," stributed)                  )                                   \n","                                                                 \n"," time_distributed_2 (TimeDi  (None, 30, 60, 60, 16)    0         \n"," stributed)                                                      \n","                                                                 \n"," time_distributed_3 (TimeDi  (None, 30, 60, 60, 32)    4640      \n"," stributed)                                                      \n","                                                                 \n"," time_distributed_4 (TimeDi  (None, 30, 60, 60, 32)    128       \n"," stributed)                                                      \n","                                                                 \n"," time_distributed_5 (TimeDi  (None, 30, 30, 30, 32)    0         \n"," stributed)                                                      \n","                                                                 \n"," time_distributed_6 (TimeDi  (None, 30, 30, 30, 64)    18496     \n"," stributed)                                                      \n","                                                                 \n"," time_distributed_7 (TimeDi  (None, 30, 30, 30, 64)    256       \n"," stributed)                                                      \n","                                                                 \n"," time_distributed_8 (TimeDi  (None, 30, 15, 15, 64)    0         \n"," stributed)                                                      \n","                                                                 \n"," time_distributed_9 (TimeDi  (None, 30, 15, 15, 128)   73856     \n"," stributed)                                                      \n","                                                                 \n"," time_distributed_10 (TimeD  (None, 30, 15, 15, 128)   512       \n"," istributed)                                                     \n","                                                                 \n"," time_distributed_11 (TimeD  (None, 30, 7, 7, 128)     0         \n"," istributed)                                                     \n","                                                                 \n"," time_distributed_12 (TimeD  (None, 30, 6272)          0         \n"," istributed)                                                     \n","                                                                 \n"," simple_rnn (SimpleRNN)      (None, 64)                405568    \n","                                                                 \n"," dropout (Dropout)           (None, 64)                0         \n","                                                                 \n"," dense (Dense)               (None, 64)                4160      \n","                                                                 \n"," dropout_1 (Dropout)         (None, 64)                0         \n","                                                                 \n"," dense_1 (Dense)             (None, 2)                 130       \n","                                                                 \n","=================================================================\n","Total params: 508258 (1.94 MB)\n","Trainable params: 507778 (1.94 MB)\n","Non-trainable params: 480 (1.88 KB)\n","_________________________________________________________________\n","None\n"]}],"source":["\n","\n","CNNRNN_Model = Sequential()   \n","\n","CNNRNN_Model.add(TimeDistributed(Conv2D(16, (3, 3) , padding='same', activation='relu'),input_shape=(x,y,z,3)))\n","CNNRNN_Model.add(TimeDistributed(BatchNormalization()))\n","CNNRNN_Model.add(TimeDistributed(MaxPooling2D((2, 2))))\n","        \n","CNNRNN_Model.add(TimeDistributed(Conv2D(32, (3, 3) , padding='same', activation='relu')))\n","CNNRNN_Model.add(TimeDistributed(BatchNormalization()))\n","CNNRNN_Model.add(TimeDistributed(MaxPooling2D((2, 2))))\n","        \n","CNNRNN_Model.add(TimeDistributed(Conv2D(64, (3, 3) , padding='same', activation='relu')))\n","CNNRNN_Model.add(TimeDistributed(BatchNormalization()))\n","CNNRNN_Model.add(TimeDistributed(MaxPooling2D((2, 2))))\n","        \n","CNNRNN_Model.add(TimeDistributed(Conv2D(128, (3, 3) , padding='same', activation='relu')))\n","CNNRNN_Model.add(TimeDistributed(BatchNormalization()))\n","CNNRNN_Model.add(TimeDistributed(MaxPooling2D((2, 2))))\n","\n","# Flatten layer \n","\n","CNNRNN_Model.add(TimeDistributed(Flatten()))\n","CNNRNN_Model.add(SimpleRNN(64))\n","CNNRNN_Model.add(Dropout(0.25))\n","\n","# Dense layer \n","CNNRNN_Model.add(Dense(64,activation='relu'))\n","CNNRNN_Model
…
